
module {
  func @tpu_func(%arg0: tensor<16x16x16x16xf32>) -> (tensor<16x16x16x16xf32>,tensor<16x16x16x16xf32>,tensor<16x16x16x16xf32>,tensor<16x16x16x16xf32>,tensor<16x16x16x16xf32>,tensor<16x16x16x16xf32>,tensor<16x16x16x16xf32>,tensor<16x16x16x16xf32>,tensor<16x16x16x16xf32>,tensor<16x16x16x16xf32>) {
    %1 = "tpu.input"(%arg0) {name = "data", quant = {mode = "NONE", param_type = "NONE", threshold_max = 0.000000e+00 : f32, threshold_min = 0.000000e+00 : f32}} : (tensor<16x16x16x16xf32>) -> tensor<16x16x16x16xf32>
    %2 = "tpu.permute"(%1) {name = "permute_1023", order = [  1 : i32, 0 : i32, 2 : i32, 3 : i32 ],quant = {mode = "NONE", param_type = "NONE", threshold_max = 0.000000e+00 : f32, threshold_min = 0.000000e+00 : f32}} : (tensor<16x16x16x16xf32>) -> tensor<16x16x16x16xf32>
    %3 = "tpu.permute"(%2) {name = "permute_0123", order = [  0 : i32, 1 : i32, 2 : i32, 3 : i32 ],quant = {mode = "NONE", param_type = "NONE", threshold_max = 0.000000e+00 : f32, threshold_min = 0.000000e+00 : f32}} : (tensor<16x16x16x16xf32>) -> tensor<16x16x16x16xf32>
    %4 = "tpu.permute"(%1) {name = "permute_0213", order = [  0 : i32, 2 : i32, 1 : i32, 3 : i32 ],quant = {mode = "NONE", param_type = "NONE", threshold_max = 0.000000e+00 : f32, threshold_min = 0.000000e+00 : f32}} : (tensor<16x16x16x16xf32>) -> tensor<16x16x16x16xf32>
    %5 = "tpu.permute"(%1) {name = "permute_2013", order = [  2 : i32, 0 : i32, 1 : i32, 3 : i32 ],quant = {mode = "NONE", param_type = "NONE", threshold_max = 0.000000e+00 : f32, threshold_min = 0.000000e+00 : f32}} : (tensor<16x16x16x16xf32>) -> tensor<16x16x16x16xf32>
    %6 = "tpu.permute"(%1) {name = "permute_2103", order = [  2 : i32, 1 : i32, 0 : i32, 3 : i32 ],quant = {mode = "NONE", param_type = "NONE", threshold_max = 0.000000e+00 : f32, threshold_min = 0.000000e+00 : f32}} : (tensor<16x16x16x16xf32>) -> tensor<16x16x16x16xf32>
    %7 = "tpu.permute"(%1) {name = "permute_1203", order = [  1 : i32, 2 : i32, 0 : i32, 3 : i32 ],quant = {mode = "NONE", param_type = "NONE", threshold_max = 0.000000e+00 : f32, threshold_min = 0.000000e+00 : f32}} : (tensor<16x16x16x16xf32>) -> tensor<16x16x16x16xf32>
    %8 = "tpu.permute"(%1) {name = "permute_0312", order = [  0 : i32, 3 : i32, 1 : i32, 2 : i32 ],quant = {mode = "NONE", param_type = "NONE", threshold_max = 0.000000e+00 : f32, threshold_min = 0.000000e+00 : f32}} : (tensor<16x16x16x16xf32>) -> tensor<16x16x16x16xf32>
    %9 = "tpu.permute"(%1) {name = "permute_0321", order = [  0 : i32, 3 : i32, 2 : i32, 1 : i32 ],quant = {mode = "NONE", param_type = "NONE", threshold_max = 0.000000e+00 : f32, threshold_min = 0.000000e+00 : f32}} : (tensor<16x16x16x16xf32>) -> tensor<16x16x16x16xf32>
    %10 = "tpu.permute"(%1) {name = "permute_0231", order = [  0 : i32, 2 : i32, 3 : i32, 1 : i32 ],quant = {mode = "NONE", param_type = "NONE", threshold_max = 0.000000e+00 : f32, threshold_min = 0.000000e+00 : f32}} : (tensor<16x16x16x16xf32>) -> tensor<16x16x16x16xf32>
    %11 = "tpu.permute"(%1) {name = "permute_0132", order = [  0 : i32, 1 : i32, 3 : i32, 2 : i32 ],quant = {mode = "NONE", param_type = "NONE", threshold_max = 0.000000e+00 : f32, threshold_min = 0.000000e+00 : f32}} : (tensor<16x16x16x16xf32>) -> tensor<16x16x16x16xf32>
    return %2,%3,%4,%5,%6,%7,%8,%9,%10,%11 : tensor<16x16x16x16xf32>,tensor<16x16x16x16xf32>,tensor<16x16x16x16xf32>,tensor<16x16x16x16xf32>,tensor<16x16x16x16xf32>,tensor<16x16x16x16xf32>,tensor<16x16x16x16xf32>,tensor<16x16x16x16xf32>,tensor<16x16x16x16xf32>,tensor<16x16x16x16xf32>
  }
}
